models/surrogate_model.pt (torch, 8053 bytes, 6 tensors)

net.0.weight f4 [32, 2]
00000000: 3195 163f 2afa d33e 5a85 22bf 6e52 39bf
00000010: 5be7 a7be 7bfd cfbe d1cf 9c3c 3ad8 06bf
00000020: 8b3f fa3e ed52 383e a9a1 10bf f35d 31bf
00000030: ec9e 82be 2c3a c23e b659 29bf bd81 1abf
00000040: d0a1 d63d d971 f33e 7103 f1bd 7163 d63e
00000050: aaaf 173f 531d ff3e 1f5c f93e d9ee 0a3f
00000060: 445b 4fbf 7e53 d0be 4c7c df3e 1477 74be
00000070: 7c4e 40bf fc2e f13e bdbe f6be f343 033f
00000080: a2e3 393f 87ea 283f 2628 0abd ef43 8a3e
00000090: 37c9 d3be 7bc6 2dbe 7072 543d 749e 2e3e
000000a0: 825b 093e 622b 59be 8504 023f fde0 41bc
000000b0: a013 4a3f 1b31 283f cb91 05bf 3ec1 303f
000000c0: 1ea7 343d 19b4 393f 5db0 0e3f d8e3 f23d
000000d0: e76a d0be 3831 08be 2ece fb3e 5f35 09bf
000000e0: a70b 17bf 3f18 673e 5b93 0abe 703f eb3e
000000f0: 82f7 a73e 7fb8 853e 5339 693e 150a a53e
0.588214 0.41401798 -0.6348473 -0.723914 -0.32793698 -0.40623078 0.019142063 -0.52673686
0.48876604 0.18000384 -0.56496674 -0.6928398 -0.25511873 0.37935007 -0.66152513 -0.60354215
0.10480082 0.47547796 -0.117682345 0.41872743 0.5925242 0.4982706 0.48703095 0.542707
-0.80998635 -0.406887 0.43649518 -0.2387355 -0.7511976 0.4710616 -0.48192397 0.5127556
0.72612965 0.6598286 -0.033729695 0.27004954 -0.41364452 -0.16970246 0.05186695 0.17052633
0.13413814 -0.21207955 0.50788146 -0.011833427 0.78936195 0.6569993 -0.5217559 0.69044864
0.044104688 0.7254043 0.5573786 0.11859864 -0.4070656 -0.13300025 0.4918074 -0.5359706
-0.59002155 0.22567843 -0.13532774 0.45946836 0.3280602 0.26117322 0.22775774 0.32234254

net.0.bias f4 [32]
00000000: 2860 c1be ac9e 92be 1398 473f 6e7d 843f
00000010: c27e 883f 11fc 893d f3a6 983f 25c3 f43d
00000020: 154c 653f cb4b 653f ac45 fc3c 5573 48be
00000030: b0a1 603f 0fbd e23e 9d0f e53e 4224 c63e
00000040: b40e 723d d810 40bf 7276 623f 7354 c7be
00000050: a9a0 303f 2d99 3e3f 24db 933e b01c 9a3e
00000060: 67ab a63f 0184 863f 1035 9c3f 61dd b93d
00000070: 3031 513f 50b6 793f 466a 6e3f f136 643f
-0.37768674 -0.28636682 0.7796642 1.0350778 1.0663683 0.06737531 1.1925949 0.11951283
0.89569217 0.89568776 0.03079494 -0.19575246 0.87746716 0.44284865 0.44738474 0.38699538
0.059096053 -0.750257 0.88461983 -0.38931617 0.6899515 0.7445248 0.2887813 0.30100012
1.3021058 1.0509034 1.2203693 0.09075428 0.8171568 0.9754381 0.9313091 0.89146334

net.2.weight f4 [32, 32]
00000000: 92cd a13c 1c1f 9dbe e954 dc3e 3d55 c03e
00000010: 74e5 253f 59f0 1c3d dc02 173f 7d5b 263e
00000020: 10bf 0f3f f931 953e ffd7 643e fadf 8fbd
00000030: 43c5 943e fb36 953e 2f96 b63e 6408 d03e
00000040: 2720 8c3d 0be8 93bd dd58 f73e 327a 19be
00000050: 5191 ce3e 72b3 963e bdb9 a33e 9fe4 943e
00000060: 26f5 253f 60fa 003f ca55 fa3e c63a 61be
00000070: d816 773e 35f6 053f c572 e93e 49e5 993e
00000080: 7b20 07be 62d5 e6bd 85b7 223e dd9f c73e
00000090: f1d2 ce3e 5b1e 3cbb bf2e 193f 6e06 403e
000000a0: b8eb a93e e007 093f 1ef3 693e 6593 25be
000000b0: 3f65 f53e dab0 983e d77f c23e 9eea 753d
000000c0: c107 0d3e 7023 4d3e d27b e53e 99d8 e3bd
000000d0: e550 f03e 515c 7c3e c37f 8c3e 68d9 3bbb
000000e0: 87e0 2a3f 0c2b 0a3f f32f 3b3f 0629 01be
000000f0: 3601 f23e 7204 393f aa15 d13e 40ef 993e
00000100: b114 99bd 6283 44be f22d d63e 966e 533e
00000110: b569 dd3e 4b48 9d3d c700 fe3e 9b1b 8abd
00000120: 97fa 0f3f e0bc b43e 9a2c 993e 8dd0 5a3d
00000130: cbfa f13d 41f7 703e 59a5 e43e a46d ff3d
00000140: 9eea a53e 1a3b 603e d779 df3e 20c9 0fbc
00000150: b9b8 773e c00e ad3e b581 c03e 8513 ab3e
00000160: 00fb ce3e e348 253f 5118 003f 3365 b6bd
00000170: 849d f33e 51b2 093f bac7 ae3e 2815 e93e
00000180: 8900 273e e074 46bd c0b9 1d3c 461d b4bd
00000190: 4a77 9f3d 408e 1dbd 22fe ab3d 62be 05be
000001a0: 9b95 1abe 20bf 7b3d 2e74 ca3d 0c71 2a3d
000001b0: a046 01be b86b 9f3c b632 9f3d 885c 27be
000001c0: c0ed f13b af57 233e 9efd c43d 3a01 bd3d
000001d0: 67eb 173e 0894 ba3c 9cc8 2cbe 77b9 f1bd
000001e0: 08d1 1fbe 7c3c 32be 36c2 db3d 4078 3bbd
000001f0: 0300 bdbd 7850 2f3d 7215 a6bd c055 ba3b
00000200: 1326 11be b7eb 20be e2b6 61be 679e 11be
00000210: c429 2cbe ca1f e9bd 6591 5cbe 3cb0 b9bd
00000220: 4c7f 36be 7528 72bd a201 4fbd 66a3 48be
00000230: d39c 19be 20a5 81be 2c6d 37be 20a8 33be
00000240: 3ff6 92bd 49d1 a83d abb3 cfbd 691c 143e
00000250: 6bf3 c9bd 7627 88be 7613 9fbd 238c 02be
00000260: 76de f53b de95 7abb 4cbd 19be 9f46 9ebd
00000270: 3e9f c4bd 4059 26bc 83d8 1ebe a999 06be
00000280: 1d9d 24be c0d8 01bf 2744 ac3b 4aa0 923e
00000290: 6b9b 083f 1095 a5be fbad de3e be33 94be
000002a0: e412 d23e 4809 803e d0c5 b43d 31e9 9cbe
000002b0: fbe2 fbbd 09c3 1fbe 5902 6fbe d464 1a3d
000002c0: 216a 23bd 7a97 f33d f687 6e3e c7f2 14be
000002d0: 4cff a33e ca78 e63d ebcb 0c3e 97c9 77be
000002e0: 0e30 b83e 1881 b93e 9f7b 613e c04b babe
000002f0: dd98 89bd 2395 153f 2f75 853e 8faa a43e
00000300: 930f 0fbe e3c3 0bbe 2c46 05bd fbec 3cbe
00000310: d434 a8bd 69e0 04bb 027b 57be 95f6 a83c
00000320: 8e65 a3bd e369 3bbe 953e 9e3d f5b4 213e
00000330: 47cf 24bb f2f9 28bd 3f55 c53a 99e8 61be
00000340: 4fa9 193e 40f8 f5bb 8581 41bd b203 6fbd
00000350: 3a80 08be 6363 a5ba 1621 6bbe 5cd7 d8bd
00000360: 6b71 98bc 69ff 80be 3387 9cbb d4a2 19be
00000370: ba6b 2fbe e78a b2bd 81ae 043c c246 16be
00000380: 518a 913d ac7f eabc 85df 563e e55c ef3e
00000390: e37c e83e 1d78 1a3e 6b5b 003f f124 523e
000003a0: 560f 863e f3df 8f3e 33b6 db3b c748 233c
000003b0: 8e99 be3e b7c5 1a3e 13f7 ca3e 9dfd b13e
000003c0: 5cfb 163e 28b7 46bd f5ac 003f d499 083d
000003d0: ce15 8a3e fa55 b03e c895 033e 57da 893d
000003e0: c805 e43e 84e2 e43e cdfd 093f 2ff6 223d
000003f0: 1e6c 703e 365b 1d3f f7bc 003f 3f38 a93e
0.019751344 -0.30687797 0.4303353 0.37565032 0.6480324 0.03831515 0.5898874 0.16245838
0.56150913 0.2913969 0.22348021 -0.07025142 0.2905675 0.2914351 0.35661456 0.40631402
0.0684207 -0.07221993 0.48309985 -0.1498802 0.40345243 0.2943378 0.31977645 0.29080674
0.6482719 0.5038204 0.48893577 -0.21995077 0.24129808 0.5232881 0.45595375 0.30057743
-0.13195984 -0.11271168 0.1589032 0.38989154 0.4039531 -0.0028704617 0.59836954 0.18752453
0.33187652 0.5352764 0.22846648 -0.16169508 0.47928807 0.29822427 0.3798816 0.0600382
0.13772489 0.2003305 0.4482103 -0.11125297 0.46936718 0.24644591 0.27441224 -0.002866352
0.6674885 0.53971934 0.7312004 -0.12613305 0.4726655 0.7227241 0.4083684 0.30065346
-0.0747465 -0.19190744 0.41831928 0.20647654 0.4324471 0.076798044 0.49609968 -0.067435466
0.56241745 0.3530035 0.2991684 0.053421546 0.11815413 0.2353182 0.446574 0.12472084
0.3240556 0.21897545 0.43647644 -0.008775979 0.2419156 0.33800316 0.3759896 0.3341333
0.40425873 0.6456434 0.50037104 -0.08906021 0.47581112 0.53787714 0.34136754 0.45523953
0.16308798 -0.048451304 0.009626806 -0.08794646 0.077864245 -0.03846574 0.08398081 -0.13060907
-0.15096132 0.061461568 0.09885441 0.041611716 -0.12624598 0.019460544 0.07773344 -0.16343892
0.0073830783 0.15951417 0.09618686 0.092287496 0.14835893 0.022775665 -0.16873401 -0.11802953
-0.15607083 -0.17405885 0.10730402 -0.045768976 -0.09228518 0.04280135 -0.08109559 0.0056864917
-0.1417468 -0.15714918 -0.2204242 -0.14220582 -0.16812807 -0.113830164 -0.21539839 -0.09066817
-0.17821997 -0.059120614 -0.050538667 -0.19593582 -0.1500123 -0.25321293 -0.1791274 -0.17544603
-0.07175874 0.08243043 -0.10141691 0.14463963 -0.098608814 -0.26592606 -0.07767384 -0.1274877
0.007503326 -0.00382363 -0.15013617 -0.07728314 -0.096006855 -0.010153115 -0.1551228 -0.13144554
-0.16075559 -0.5072136 0.005257148 0.28637916 0.5336215 -0.32340288 0.43492112 -0.28945726
0.41030037 0.2500708 0.08826792 -0.3064666 -0.122991525 -0.15601744 -0.2334074 0.037693813
-0.039896134 0.11894126 0.23294052 -0.14545737 0.32030714 0.112535074 0.13749664 -0.24197994
0.35974163 0.36231303 0.22019814 -0.36385918 -0.067186095 0.5843069 0.26065966 0.32161376
-0.13970785 -0.13648944 -0.032537624 -0.18449776 -0.08213201 -0.002027536 -0.21043018 0.020625392
-0.079783544 -0.18302111 0.0772678 0.15791686 -0.002514796 -0.04125399 0.0015055313 -0.22061385
0.15005992 -0.0075064003 -0.04724266 -0.058353133 -0.13330165 -0.001261812 -0.2296184 -0.105879515
-0.01860877 -0.25194862 -0.004776859 -0.1500352 -0.17130938 -0.087179 0.008098246 -0.1467543
0.0710646 -0.028625332 0.20983703 0.4675056 0.4540778 0.15084882 0.5013949 0.20521905
0.26183575 0.28100547 0.0067050694 0.009966082 0.37226528 0.15114485 0.39641628 0.34763804
0.14744323 -0.048514515 0.5026391 0.033349827 0.2696976 0.34440595 0.12850106 0.06731098
0.4453566 0.44704068 0.53902894 0.03978556 0.23478743 0.614673 0.5028834 0.33050725

net.2.bias f4 [32]
00000000: fc60 1b3f 8573 ea3e aa36 153f 0aa9 09be
00000010: a9db bb3c 061d d03e 664e 32be 81e7 f13e
00000020: a70a 683c 31a3 7dbc c170 143f e891 143f
00000030: 16e9 34be 7ffc 89be d95c 87be ab1e d33e
00000040: 006d bc3e d4ca f93e 00e7 1bbe 726b 293f
00000050: 450f afbd 2663 953d 8a12 ca3e b072 c3bd
00000060: 86f4 27be 1d68 83be add9 003f d609 8dbd
00000070: 7c84 353f 4c9b f63c 5a7d 1b3f 8e0b fe3e
0.6069486 0.4579126 0.58286536 -0.1344339 0.02293189 0.40647143 -0.17412719 0.47246936
0.014162696 -0.015480802 0.5798455 0.58035135 -0.1766704 -0.26950452 -0.26438025 0.41234335
0.3680191 0.48787558 -0.15224838 0.66179574 -0.08547834 0.07294302 0.3946727 -0.09543359
-0.16401872 -0.2566537 0.50332147 -0.06886642 0.7090528 0.030103348 0.60738146 0.4961819

net.4.weight f4 [2, 32]
00000000: da0c 37bd bcc6 573e df55 11be dc84 933d
00000010: 1532 853e e68a 01bd e3b4 553c 6af3 e93d
00000020: 6acc 8a3e fc0c 743e b9d1 03be 78fb 85bc
00000030: 5404 ce3d 7c3a 5ebd 8497 073e f2de 2b3e
00000040: 507d c53d eea1 84be 6a30 19be d9c3 8b3c
00000050: f748 9dbc 471e 4d3e 9403 103e 663b 03be
00000060: 871c eebc a277 823e 7335 183e 2982 923d
00000070: 6f8f 373e a7fa 123e eff0 4abe 99bb a9be
00000080: 712e 023f 600c e33e b0e1 033f 00ba fbb9
00000090: 4ebd 0c3c a598 af3e 47a0 073d 3e48 fb3e
000000a0: 1ceb 8abd 423d dfbb b7d1 093f 1481 063f
000000b0: 07c5 f63c c7ca 5cbd ab44 5e3d 07d1 e73e
000000c0: cca0 093f 44a7 c33e 0bd3 263e 5fd5 ee3e
000000d0: c2e9 8bbd e039 cdbb ae87 e83e 3ed0 bc3d
000000e0: 5f6d 4bbd 59df 7fbc 00eb f43e f646 5b3d
000000f0: e329 e43e 3d5c 763a 5ecc cf3e d740 cc3e
-0.04468999 0.21071905 -0.14192913 0.07203075 0.26014772 -0.031626604 0.013043615 0.11423381
0.2710908 0.23833078 -0.12872972 -0.016355261 0.10059419 -0.054254994 0.13241392 0.16784266
0.09643042 -0.25904793 -0.14959875 0.01706116 -0.019199831 0.20031081 0.14063865 -0.12815627
-0.029066337 0.25481898 0.1486414 0.07153732 0.1792581 0.14353429 -0.19818471 -0.33150938
0.50852114 0.4434538 0.51516247 -0.00048013031 0.008590056 0.34296146 0.033111837 0.49078554
-0.06783125 -0.0068127224 0.53835624 0.5254071 0.030123247 -0.05390432 0.054264706 0.45276663
0.5376098 0.3821355 0.16291444 0.46647164 -0.06831695 -0.0062630028 0.45416015 0.092194065
-0.04966485 -0.015617215 0.4783554 0.05353447 0.44563207 0.00093979 0.40585607 0.3989322

net.4.bias f4 [2]
00000000: fbb7 863e a091 e53e
0.2631224 0.44837666
